…
n_channels=1,\n                  res_channels=16,skip_channels=16,\n                  c_channels=6,\n                  g_channels=0,\n                  res_kernel_size=3,\n                  layer_size=4,  # 6\n                  stack_size=1,\n                  out_distribution= \"Normal\",\n                  num_mixtures=1,\n                  use_pad=False,\n                  model_name = 'SPIVAE',\n                 )\nmodel = VAEWaveNet(**model_args)\n\nPrinting the model object will reveal the declared layers.\n\nmodel\n\nVAEWaveNet(\n  (vae): VAEConv1d(\n    (encoder): Sequential(\n      (0): Conv1d(1, 16, kernel_size=(3,), stride=(1,))\n      (1): ReLU(inplace=True)\n      (2): Conv1d(16, 16, kernel_size=(3,), stride=(1,))\n      (3): ReLU(inplace=True)\n      (4): Conv1d(16, 16, kernel_size=(3,), stride=(1,))\n      (5): ReLU(inplace=True)\n      (6): Conv1d(16, 16, kernel_size=(3,), stride=(1,))\n      (7): ReLU(inplace=True)\n      (8): AdaptiveConcatPool1d(\n        (ap): AdaptiveAvgPool1d(output_size=16)\n        (mp): AdaptiveMaxPool1d(output_size=16)\n      )\n      (9): View()\n      (10): Linear(in_features=512, out_features=200, bias=True)\n      (11): ReLU(inplace=True)\n      (12): Linear(in_features=200, out_features=100, bias=True)\n      (13): ReLU(inplace=True)\n      (14): Linear(in_features=100, out_features=12, bias=True)\n    )\n    (decoder): Sequential(\n      (0): Linear(in_features=6, out_features=100, bias=True)\n      (1): ReLU(inplace=True)\n      (2): Linear(in_features=100, out_features=200, bias=True)\n      (3): ReLU(inplace=True)\n      (4): Linear(in_features=200, out_features=512, bias=True)\n      (5): ReLU(inplace=True)\n      (6): View()\n    )\n    (convt): Sequential(\n      (0): ConvTranspose1d(16, 16, kernel_size=(3,), stride=(1,))\n      (1): ReLU(inplace=True)\n      (2): ConvTranspose1d(16, 16, kernel_size=(3,), stride=(1,))\n      (3): ReLU(inplace=True)\n      (4): ConvTranspose1d(16, 16, kernel_size=(3,), stride=(1,))\n      (5): ReLU(inplace=True)\n      (6): ConvTranspose1d(16, 6, kernel_size=(3,), stride=(1,))\n      (7): ReLU(inplace=True)\n    )\n  )\n  (init_conv): Conv1d(1, 16, kernel_size=(1,), stride=(1,))\n  (causal): DilatedCausalConv1d(\n    (conv): Conv1d(16, 16, kernel_size=(2,), stride=(1,))\n  )\n  (res_stack): ModuleList(\n    (0): ResidualBlock(\n      (dilated): DilatedCausalConv1d(\n        (conv): Conv1d(16, 32, kernel_size=(3,), stride=(1,))\n      )\n      (conv_c): Conv1d(6, 32, kernel_size=(1,), stride=(1,), bias=False)\n      (conv_res): Conv1d(16, 16, kernel_size=(1,), stride=(1,))\n      (conv_skip): Conv1d(16, 16, kernel_size=(1,), stride=(1,))\n    )\n    (1): ResidualBlock(\n      (dilated): DilatedCausalConv1d(\n        (conv): Conv1d(16, 32, kernel_size=(3,), stride=(1,), dilation=(2,))\n      )\n      (conv_c): Conv1d(6, 32, kernel_size=(1,), stride=(1,), bias=False)\n      (conv_res): Conv1d(16, 16, kernel_size=(1,), stride=(1,))\n      (conv_skip): Conv1d(16, 16, kernel_size=(1,), stride=(1,))\n    )\n    (2): ResidualBlock(\n      (dilated): DilatedCausalConv1d(\n        (conv): Conv1d(16, 32, kernel_size=(3,), stride=(1,), dilation=(4,))\n      )\n      (conv_c): Conv1d(6, 32, kernel_size=(1,), stride=(1,), bias=False)\n      (conv_res): Conv1d(16, 16, kernel_size=(1,), stride=(1,))\n      (conv_skip): Conv1d(16, 16, kernel_size=(1,), stride=(1,))\n    )\n    (3): ResidualBlock(\n      (dilated): DilatedCausalConv1d(\n        (conv): Conv1d(16, 32, kernel_size=(3,), stride=(1,), dilation=(8,))\n      )\n      (conv_c): Conv1d(6, 32, kernel_size=(1,), stride=(1,), bias=False)\n      (conv_res): Conv1d(16, 16, kernel_size=(1,), stride=(1,))\n      (conv_skip): Conv1d(16, 16, kernel_size=(1,), stride=(1,))\n    )\n  )\n  (out_conv): Sequential(\n    (0): ReLU(inplace=True)\n    (1): Conv1d(16, 16, kernel_size=(1,), stride=(1,))\n    (2): ReLU(inplace=True)\n    (3): Conv1d(16, 9, kernel_size=(1,), stride=(1,))\n  )\n)\n\n\n\n\n\nTraining example\nWith the data and the model, we can already start training.\n\nDEVICE= 'cpu' # 'cuda'\nprint(DEVICE)\n\ncpu\n\n\n\nDs = np.linspace(2e-5,2e-2,10)\nalphas = np.linspace(0.2,1.8,21)\nn_alphas,n_Ds = len(alphas), len(Ds)\nds_args = dict(path=\"../../data/raw/\", model='fbm', # 'sbm'\n               N=int(6_000/n_alphas/n_Ds*2)
…
